model.pth (torch, 126362 bytes, 22 tensors)

layer1.0.weight f4 [16, 3, 3, 3]
00000000: 0dc1 1cbe a319 51bd 37bc 48bd e14f b5bd
00000010: 5b51 1ebe b99a 8b3d 8b9f 3a3d a457 383c
00000020: 761a 3cbe 949c 11be 1535 17bc 5ace 7cbd
00000030: 4d2a 23be 1463 863d 939f f2ba ab7a e5bd
00000040: c651 dc3d eddf cebd 1423 1bbe 95c5 1f3c
00000050: 1b3d 3a3e 2846 dc3d 30aa 54bd cf0e 1ebe
00000060: 5858 0a3e aad3 303e a71e fabc f7dd fd3c
00000070: c97d 2dbd 56cf c8bc 2316 40bd 077c 1ebd
00000080: e4f6 123e 40e9 5abd 30a9 22be 8a30 e13d
00000090: 676a 39bd b5ce 633e 5bc1 823c 67d2 e63d
000000a0: 58f4 813e 9d17 9d3e d18d 423e 60cd 793c
000000b0: 46f0 9e3e 9de6 febb 6e8c 8dbe 6b8b 883d
000000c0: 1156 113e 91a7 7bbd a6c3 79bc 3dc9 b9bc
000000d0: c05d f4bc 9922 873d 03aa 9b3d cb0b 683e
000000e0: 16c1 08be a87c 153e 6488 053e 544e 8abd
000000f0: 8a5a 2b3e b1d5 133e d881 7b3e 1d8c 2b3c
00000100: fb8e 7abd a7ba e73c c485 73bd 359d dc3d
00000110: 566c bfbc b8e3 393e 94b4 493e 4585 f33d
00000120: 0717 03be bdd9 30be 434e 8fbd e751 17be
00000130: cfa0 243e 88ed f1bd 60e2 3ebe 5b69 1ebd
00000140: c6e6 2cbe fe5c 52be 89e7 52be af39 6f3d
00000150: 0c49 073d 886d 33be 247e 83bd adb9 14bd
00000160: dbf1 3a3e 2acc de3d c4a2 57be 450d dc3c
00000170: ef50 08be 1bba f13d 61da 31be be18 e9bd
00000180: 92f6 473e ac1b d3bd d944 1b3d 6a1f 413e
00000190: 2f37 ab3d 04f2 e838 721a a13d 785e c03d
000001a0: e045 573d 9666 a5bd 1424 a43d ec96 213e
000001b0: cc4e bb3d 29cc 203e 3323 e5bc 4dc0 373e
000001c0: 762d 383c 9f45 f5bc ea74 973d bc85 203e
000001d0: 6e8d 353e c049 1c3e 0265 fabd 7b67 87bd
000001e0: ad11 d1bc 3516 47bd 4cac 03be 9579 23be
000001f0: 06d7 2abe 5cfc 7cbe 8a4e c63d 613a ee3a
00000200: ffc1 1e3e 0a37 003e 9100 02be 6056 863d
00000210: 1e11 083e ce26 a0ba 23d9 ba3c b378 df3d
00000220: 234a 1cbe c1cb 72bc 9088 60be ed2e 25be
00000230: 445d 0bbd ddb1 1cbe bd9a 7cbe e877 55bd
00000240: 6842 c9bd d1bc c6bd d3fa febd 173e ccbb
00000250: 3e0f 3e3d da7b 60be 84a9 c5bc da8a b0bd
00000260: e45d d33c f70f 0a3e 6755 d3bd 739a fb3d
00000270: 6186 b53d 2dd7 3dbd 0059 563d 17b6 173e
00000280: 8df8 4dbd 7ad0 29bd dedf 213e 8316 8a3c
00000290: 9b1c ed3d f03d 0fbd 2799 3f3e 3d8b ebbc
000002a0: 5f69 4b3e cd5a 2f3e af93 2d3e eb54 803c
000002b0: 7df7 2d3e b47b 0c3e 5f91 9e3d 7046 4d3e
000002c0: d82f 1c3d 4734 993d 2059 923d eeb6 cebd
000002d0: 8fa0 2d3d 2569 f3bd 6074 d53b 00bc ffbd
000002e0: da88 0bbe bdc5 3c3e 3b32 15be f3f7 2abe
000002f0: 3ae7 bfbb d561 50bd 3fc7 0d3e 2bce 453d
00000300: 7c0a 5ebd 0ced 6a3d 6cc4 c73c 8c2d 51bd
00000310: db29 063e 5dd8 1e3e d264 35be ec0a 4ebe
00000320: 8918 56be 449a 9f3d 2bca 30be 7788 9a3d
00000330: c208 543d 8daf d2bd 5e0f 46be cde4 dd3c
00000340: 375f cb3c fc8c c13d 1460 c93d 9276 493e
00000350: c852 9fbd 083d 593b 23a5 41bd 9806 cc3d
00000360: fc5e 3d3e eaaf bd3d 8551 04bb 2735 2e3e
00000370: 387c b53d 00fa c53d d6ab 92bd a6e0 f93d
00000380: 3477 6fbd 736a 43bd 363c 77bd 49c5 3c3d
00000390: d400 c1bc 217c 25be 957d 313c 93ad fcbd
000003a0: 4049 f83d ef95 38bd 6aa0 423d 0f09 803c
000003b0: c709 39bd ca4f dcbd 3f4a 4b3e c488 12be
000003c0: 3620 cd3b bd88 b83b 057f 9b3d 74e6 2e3e
000003d0: 6461 fdbd 8823 58be e8f6 363d 0881 6bbc
000003e0: 09af 30be 65d9 1d3c 2ef7 123d 84a5 0ebe
000003f0: 4b81 febc a0ae 72bb 572a 86be 312f 87bc
-0.15308018 -0.05104984 -0.04900762 -0.08853126 -0.15460722 0.068166204 0.04556231 0.011251364
-0.18369469 -0.14219886 -0.009228964 -0.06172023 -0.15934105 0.065618664 -0.0018510692 -0.11205038
0.107577845 -0.10101304 -0.151501 0.009751697 0.18187372 0.10755569 -0.051920116 -0.15435337
0.13510263 0.17268243 -0.030532194 0.03098963 -0.042356286 -0.024512928 -0.04689611 -0.0386925
0.14351994 -0.0534451 -0.15884852 0.10995586 -0.04526749 0.22246821 0.01596134 0.112706
0.25381732 0.30682078 0.18999411 0.015246719 0.3104269 -0.007778956 -0.27646202 0.06667217
0.14192988 -0.0614391 -0.0152444 -0.022678966 -0.02982986 0.06598396 0.076007865 0.22660749
-0.13354906 0.14598334 0.1304031 -0.06753221 0.16733757 0.14436986 0.2456125 0.010470417
-0.061171513 0.028287245 -0.05945374 0.10772172 -0.023367088 0.18153274 0.19697791 0.118906535
-0.12801753 -0.1727056 -0.06997349 -0.14777337 0.16076969 -0.118128836 -0.18641043 -0.038674694
-0.16884908 -0.20543286 -0.20596136 0.05840462 0.033028647 -0.17522252 -0.06420544 -0.036309887
0.18256323 0.10878785 -0.21058184 0.026861796 -0.13312124 0.11803075 -0.17368461 -0.11381672
0.19527653 -0.10308012 0.037907455 0.1885964 0.08360135 0.00011107701 0.07866372 0.093930185
0.052556872 -0.08076207 0.08014694 0.15780228 0.09145889 0.15702881 -0.027970886 0.1794445
0.0112413075 -0.029940424 0.073953465 0.15676016 0.17729732 0.15262508 -0.12226297 -0.06611534
-0.025521124 -0.048605163 -0.12858695 -0.15964349 -0.16683587 -0.24705642 0.09682949 0.0018175357
0.15503691 0.12520996 -0.12695529 0.065594435 0.1328778 -0.0012218596 0.022808617 0.109116934
-0.15262656 -0.0148190865 -0.21927094 -0.16131182 -0.034024492 -0.15302224 -0.24668403 -0.052116305
-0.09827119 -0.097039826 -0.12450185 -0.0062329876 0.046401255 -0.21922246 -0.024128683 -0.08620234
0.025801606 0.13482653 -0.103190236 0.12285318 0.08863521 -0.046347786 0.05233097 0.14815556
-0.050285865 -0.041458584 0.15808055 0.016856438 0.11577722 -0.034971178 0.18710767 -0.028752917
0.19864415 0.17124481 0.16950868 0.015665492 0.1698894 0.13719064 0.07742571 0.20046401
0.038131565 0.07480674 0.071459055 -0.10093485 0.04238945 -0.11885289 0.006514117 -0.1248703
-0.13626423 0.18434806 -0.14569943 -0.16696148 -0.005856422 -0.05087455 0.13845538 0.04829232
-0.054209217 0.05735497 0.024385653 -0.051068828 0.13101904 0.15512224 -0.17714241 -0.20121354
-0.20907797 0.07793096 -0.17264621 0.0754556 0.051766165 -0.1028739 -0.193418 0.02708664
0.024825675 0.09450719 0.098327786 0.19674137 -0.07779461 0.003314795 -0.047276627 0.09962195
0.18493265 0.092620686 -0.002019019 0.17012464 0.088615835 0.09666824 -0.07161681 0.122010514
-0.05846329 -0.04770894 -0.060360156 0.046086583 -0.023559965 -0.16160633 0.010833164 -0.12337794
0.12123346 -0.045064863 0.047516264 0.01562932 -0.04517534 -0.10757406 0.19852541 -0.14309984
0.0062599434 0.005631535 0.075925864 0.17080098 -0.123720914 -0.21107304 0.044669062 -0.014374025
-0.1725427 0.00963435 0.03588026 -0.13930327 -0.031067511 -0.0037030354 -0.26204178 -0.016501995

layer1.0.bias f4 [16]
00000000: a01f 70bc 924e 353b 1340 55bc 09f5 f13b
00000010: ed89 153c dd0a 32bc a54d cab9 536c cdbb
00000020: 7053 1339 1311 283c addf 763b 2d19 5c3a
00000030: 0a4b 813c b530 c73a d396 41bb 5b19 943c
-0.0146559775 0.002766524 -0.013015765 0.007383947 0.009127122 -0.010866848 -0.00038586292 -0.006269017
0.00014050095 0.010257977 0.0037669942 0.00083960855 0.015782852 0.0015197011 -0.002953936 0.018078497

layer1.1.weight f4 [16]
00000000: 64bb 893f 0222 6f3f e5f7 693f a624 873f
00000010: 0822 843f 3a74 8c3f 945a 663f 2d5d 763f
00000020: bcbc 583f 0041 923f 0d60 663f a0f3 733f
00000030: cc2f 783f 2e90 793f 004f 853f 69fa 923f
1.0760312 0.93411267 0.9139388 1.0558059 1.0322886 1.097297 0.8998196 0.96235925
0.84662986 1.1426086 0.8999031 0.9529362 0.9694793 0.97485626 1.0414734 1.1482669

layer1.1.bias f4 [16]
00000000: d5cb 5ebe 127e dbbd 3046 29be 1721 29bc
00000010: b250 2bbc d1dc 17be 784e e3bd 9c4c dc3c
00000020: faaf b1bd 74f1 4bbe 4304 1ebe 0aba c8bd
00000030: 0b14 22be 205e 15bd bb6c c3bd e067 80bd
-0.21757443 -0.107174054 -0.1653068 -0.010322831 -0.010456251 -0.14830329 -0.11098951 0.026891999
-0.08676143 -0.19916326 -0.15431313 -0.09801109 -0.15827958 -0.036466718 -0.09542223 -0.062698126

layer1.1.running_mean f4 [16]
00000000: 880c 83bd 3789 3e3e 63dd 3cbe 9788 483e
00000010: 5090 123e 93d2 c3bd a3a3 a33c 7d09 903d
00000020: 3e74 fd3c f8c0 debd c6d9 543e bb47 003e
00000030: c5b4 253e 0339 123f 07ae 12bd 7a47 07be
-0.063988745 0.18607031 -0.18443827 0.19583355 0.14312863 -0.09561648 0.019975489 0.0703306
0.030939218 -0.108766496 0.20786199 0.12527363 0.1618224 0.5711824 -0.035810497 -0.1321086

layer1.1.running_var f4 [16]
00000000: 57f9 3e3f 2b03 d33f b42b 163f 0b54 5d3d
00000010: 333c 853e b06e f53f bf8f d93f 2208 a33c
00000020: 7f1f 3c3e 95c5 fe3f b4fc 0d40 b974 0d40
00000030: 3b4c 813d 8afa 9d3f f297 bd3e 65a0 1440
0.7459921 1.6485342 0.58660436 0.054035228 0.2602249 1.9174404 1.6996993 0.019901339
0.1837139 1.9904047 2.2185488 2.2102492 0.06313368 1.2342083 0.37029988 2.3222897

layer2.0.weight f4 [32, 16, 3, 3]
00000000: f068 55bd 50ac f13c 84ef c63d 1f9d 3dbd
00000010: b684 e33b cbc2 193e 57b8 cebc b1df f33d
00000020: bdcd 4a3e c6ae 8e3d fd71 56bd 53ee 433d
00000030: f04b 3f3d 657a 53bd 5f23 59bd 46ab 3dbd
00000040: f1d0 7bbd 0a9c 223d faea 5bbd 4c73 213d
00000050: 9e8b 45bd a101 15bd 2bce c6bc a4ba 94bc
00000060: 04a1 943b c754 afbc 64d2 193d 0f61 70bd
00000070: 5854 043d e8f5 493d 6e28 b83b 2b3d fd3d
00000080: aa42 c03d 7d3c 833d b279 1e3c fecf a039
00000090: f1a5 a13d 226e 873d d496 e73d 7671 773c
000000a0: 081b fe3d 91c8 22bd 5222 173e d9d1 073e
000000b0: c513 05bb 4031 f23c d7d0 f13d 830a a53d
000000c0: af9f 733b 1909 923d 910c f23d 3736 c33d
000000d0: 5064 bd3d fb6b 3b3d 40d2 00bd 98a2 febc
000000e0: a54f 913c 222d 9cbd 3d51 9abc baa1 9e3d
000000f0: ea34 4fbd 5e2d eabd 1c32 b0bd 82fc 3ebd
00000100: 979b b43c 3add 713c fc68 32bc a22e 3ebd
00000110: ff8b bcbb 1c15 71bc d885 08bd 6db8 8f3d
00000120: 3164 433b 970b b9bc bf6a 97bd 5ed6 9f3d
00000130: dd73 453d a576 aabd 2d0a 84bc effc e4bd
00000140: bfd9 8bba 5a1a 743d e3f0 c13d 8d12 0e3e
00000150: 3cea 293c 8324 403d 47d5 2c3e 96f1 023e
00000160: c41f 9d3d 4541 fa3d 48f2 6739 662e 8dbd
00000170: 1ca2 38bd 3c89 90bc fe95 093d 7199 90bd
00000180: 5133 0ebd 0117 4cbd a74b 8cbd 1824 89bc
00000190: 9a95 4dbb 9655 2e3d be11 2f3d e85b a8bb
000001a0: 1c93 2139 9990 8abd 8f89 bb3c c2ab d5bd
000001b0: 0211 e3bd 736d 853b 3d36 a0bd f354 67bd
000001c0: 982d fdbd 7d5d b3bd fe9a 83bd da08 0dbe
000001d0: ca24 55bd bcb5 4f3c 1e6a 2ebd d987 95bc
000001e0: 1707 703d 7de0 083d 5a50 2e3d 0d77 b33d
000001f0: 1b00 de3c acce 523d 40ce a5bd 3053 3a3d
00000200: 8650 123d 92f0 89bc 47bb ef3b 3697 223c
00000210: 5db4 a1bd 9486 973d 538e be3d 947c aa3c
00000220: 5b49 ae3d e3a8 453e 8262 ab3a e34e f93d
00000230: 6280 123d b43d 23bb a20e 943c 7896 e93d
00000240: 83de bfbd 8e26 f2bd 84e8 cd3d c56a 24be
00000250: 6f5b d1bd d4f0 2f3d a018 59bd 2ebc 01bd
00000260: fc4b 063e c8f2 993d 0732 183d b163 76bd
00000270: 9822 1e3d 6e71 13bd 0292 4b3d b338 8b3d
00000280: b3eb 92bd c2ae 3bbd f33d dfbd 51e2 ecbd
00000290: d63c d1bd 06be a1bd bb5d bdbd ea84 5bbd
000002a0: 1f22 e4bd 0180 7bbc 9d6f 46bd ce9c d5bd
000002b0: 6e01 06be 0ec6 7d3c c791 99bd 9300 60bd
000002c0: f291 a4bd b04c 09bc 24d4 dabd 5d49 8dbd
000002d0: 7602 1dbb 2119 723d 858c 8a3c 5f47 80bd
000002e0: 7fa3 46bd 3a5e cf3d 251d bd3d 4af1 d63d
000002f0: 3b05 003e a178 cfbd d29a 30bd b7e4 423d
00000300: a781 b5bd 6dc5 313c 2c52 e3bb b19b e8bc
00000310: 41f9 123d a53d b73d 177b abbd bc04 1bbc
00000320: 2894 70ba c936 bb3b 9ec3 e2bd 2e9f e5b9
00000330: ba73 093d 2d1a 253c c2d4 00be 6c93 343b
00000340: 36be ea3c 3c5d a53d 0c32 123d 63db e03c
00000350: e313 c5bc ee96 343a 02b4 89bd 2d7a 0abd
00000360: 5c17 16bb 4e6d a3bc e360 7e3d ce71 39bd
00000370: 9010 90bb 65c1 543d 748f 53bd 77ab 9abd
00000380: a62a 12bd f375 efbc 982e 4d3c 6375 103e
00000390: 7082 a7bd 8f19 803d 8822 423d ba62 223c
000003a0: d228 a53d 02af 2b3e 359c adbc 4417 8cbb
000003b0: b2e6 933c fd0e 9abd b92a 823c 0887 b1bc
000003c0: 18e3 9fbd f20e b33c 39b7 90bd 69f2 dbbc
000003d0: 0053 aebc fdf4 82bd 8943 063d 5e2f 8cbd
000003e0: fef4 babd 450b 2dbc c7ce 86bd ab2b b7bd
000003f0: acd5 42bd 2995 c0bd 46eb ee3b 3cc7 2ebd
-0.05210203 0.02950111 0.09713653 -0.04629242 0.0069433106 0.15015714 -0.025234384 0.119079
0.19805045 0.06966929 -0.0523548 0.047834706 0.04670328 -0.051630396 -0.053012248 -0.046305917
-0.06147856 0.03969959 -0.053690888 0.039416596 -0.048228852 -0.036378507 -0.02426823 -0.018155403
0.004535796 -0.02140273 0.03755416 -0.058686312 0.032307 0.04930678 0.005620054 0.123651825
0.09387715 0.064080216 0.009672569 0.00030672544 0.07892979 0.06612803 0.11308065 0.015102735
0.124074996 -0.039742056 0.14759186 0.13263644 -0.0020305973 0.0295645 0.11807411 0.080586456
0.0037174036 0.071306415 0.11818803 0.09531825 0.09247649 0.045757275 -0.03145051 -0.03108339
0.017738173 -0.07625796 -0.018837566 0.07745691 -0.050587572 -0.11434434 -0.086033076 -0.04662753
0.022046847 0.014762217 -0.010889288 -0.04643119 -0.0057539935 -0.0147145055 -0.03333077 0.07017598
0.0029814357 -0.022588534 -0.07393407 0.07804559 0.0482062 -0.08323411 -0.016118133 -0.11181056
-0.0010669752 0.059595443 0.094697736 0.13874264 0.010370787 0.04690982 0.16878234 0.1278747
0.076720744 0.122194804 0.00022120134 -0.068936154 -0.045076475 -0.017643563 0.03359031 -0.070605166
-0.034716908 -0.049826626 -0.06850367 -0.016740844 -0.0031369687 0.04256209 0.04274153 -0.005137909
0.00015408959 -0.06765861 0.022892741 -0.10433151 -0.11087228 0.0040718853 -0.07822845 -0.0564775
-0.12362212 -0.08758066 -0.06426047 -0.13772908 -0.052037038 0.012677606 -0.04258167 -0.018253254
0.05860051 0.033417214 0.042557098 0.087629415 0.02709966 0.05146663 -0.0809598 0.04548949
0.035721324 -0.016838346 0.0073160264 0.009923747 -0.0789573 0.073987156 0.0930449 0.020811357
0.08510085 0.19302706 0.0013075622 0.121732496 0.035766967 -0.0024908604 0.018073384 0.11405653
-0.093686126 -0.1182376 0.100541145 -0.16056354 -0.10222518 0.04295428 -0.053002 -0.031673603
0.13114923 0.0751701 0.037157085 -0.060153667 0.03860721 -0.035996847 0.04969979 0.06797924
-0.07173862 -0.04582096 -0.10900488 -0.11566604 -0.10216682 -0.07897572 -0.09246393 -0.053593554
-0.111393206 -0.015350343 -0.048446286 -0.10430299 -0.13086483 0.015489114 -0.07498508 -0.054688048
-0.08035649 -0.0083801 -0.10684994 -0.068987586 -0.0023957766 0.059105996 0.016912708 -0.06263613
-0.048495766 0.10125394 0.092340745 0.10495241 0.12501995 -0.1013043 -0.0431164 0.0475814
-0.0886262 0.010850293 -0.006937286 -0.028394552 0.03588224 0.08947305 -0.08373087 -0.009461578
-0.00091773504 0.005713318 -0.11072467 -0.00043796882 0.03355763 0.010077042 -0.1258116 0.002755369
0.028655153 0.08074424 0.03569226 0.027448362 -0.024057334 0.00068889454 -0.06723787 -0.033807922
-0.0022902107 -0.019949581 0.062104117 -0.04527455 -0.0043965057 0.051942248 -0.05165048 -0.075522356
-0.035685204 -0.029231047 0.012523316 0.1410728 -0.08179176 0.06254875 0.047396213 0.009911234
0.080644265 0.16765979 -0.02119265 -0.0042752344 0.01805434 -0.0752239 0.015889512 -0.021670833
-0.078069866 0.021857712 -0.07066197 -0.026848989 -0.021279812 -0.06394384 0.03277925 -0.06844972
-0.0912876 -0.010561769 -0.065824084 -0.08943876 -0.047567055 -0.0940345 0.0072912304 -0.042670473

layer2.0.bias f4 [32]
00000000: 305e 6039 1cf6 f6b9 4918 15ba f1d8 13b9
00000010: ca07 6dba b34d 15ba 58bc 8c37 5b9a bf39
00000020: c9f0 94b9 7e47 273a 426b 35b9 b8c0 c9b8
00000030: 65b1 41b9 4cf6 2b39 1ceb 8cba 82dd 97b9
00000040: eed4 5939 6afa 6e3a 4c32 5bb9 b570 94b9
00000050: 82d6 bfb9 35de 40b9 b859 aa39 59e2 fe39
00000060: c39d 7d38 fbe5 e239 ff6b 8aba e605 ab39
00000070: d6f3 de39 8b26 d8ba 32c0 1cb9 0b5c 313a
0.00021397392 -0.00047104142 -0.00056875177 -0.0001409983 -0.0009041993 -0.0005695477 1.6777005e-05 0.00036545363
-0.0002840816 0.00063811976 -0.00017301462 -9.6203235e-05 -0.00018471999 0.00016399584 -0.001075122 -0.00028966
0.00020774055 0.0009116294 -0.00020904205 -0.00028312733 -0.0003659018 -0.00018393325 0.00032491772 0.00048615297
6.0466828e-05 0.00043277428 -0.001056075 0.00032620056 0.00042524812 -0.0016490979 -0.00014948918 0.00067657296

layer2.1.weight f4 [32]
00000000: 42b3 783f d7ac 673f f178 793f fc77 813f
00000010: b993 853f 0664 763f efff 523f 4557 743f
00000020: 7c91 743f 14ab 813f c732 763f 1e5e 803f
00000030: 53b2 853f b1d5 7a3f a05e 863f e3ef 7d3f
00000040: 964d 803f 1b02 853f a677 873f 32e0 693f
00000050: 38fb 813f a54e 753f c73f 723f 68ec 613f
00000060: d9f2 783f 867f 863f 579d 843f 7359 823f
00000070: aca5 723f 9e7e 7f3f 97bb 6a3f 457d 863f
0.97148526 0.9049811 0.97450167 1.0114741 1.0435706 0.96246374 0.82421774 0.9544566
0.9553449 1.0130334 0.9617123 1.0028722 1.0445045 0.9798232 1.0497627 0.99194163
1.0023677 1.0391268 1.0583389 0.9135772 1.0154791 0.9582313 0.94628567 0.8825135
0.97245556 1.0507667 1.0360516 1.0183548 0.94784045 0.9980258 0.9169249 1.0506979

layer2.1.bias f4 [32]
00000000: 9341 3bbe 60ac dcbd 9e8b 783d 7c2b 42be
00000010: 89e3 193d 1ed8 02be 5c05 52be 6353 09be
00000020: 0769 b2bb 1beb 60be f81d 9b3c 7d1b b13b
00000030: 2de8 96bd 964b e6bd 35a9 84bd 5e87 d83c
00000040: d0cd f93c f35d 3bbe ed17 ab3c 2c44 5639
00000050: 65cb 6c3d 9a99 dc3a 65c5 aebd 724c 803c
00000060: c077 bc3d 6e66 f2bb 0a07 14be 46a6 2abe
00000070: 3321 943c e0de 5ebc 71db 813c 1b92 54be
-0.18286733 -0.107750654 0.060680024 -0.189619 0.03757051 -0.12777755 -0.20509857 -0.13410716
-0.005444649 -0.21964686 0.018935189 0.005404888 -0.07368503 -0.112448856 -0.06477586 0.026431736
0.030493647 -0.18297558 0.020885432 0.00020434026 0.05781116 0.0016830445 -0.08533744 0.015661452
0.09202528 -0.0073974645 -0.1445581 -0.16664991 0.018082237 -0.013602942 0.015851708 -0.2075886

layer2.1.running_mean f4 [32]
00000000: 7e84 903f acde 5ebf c5c5 02c0 32b0 1540
00000010: ce82 d7be 9ba8 03be 6eaa 7abf 826b d03e
00000020: 3fe3 a13f e03a 0440 f20f 35bf 8463 6e3e
00000030: c102 8c3d fcda 373e 89b9 5bbf 5c71 03c0
00000040: e6c5 15c0 8886 e93f c5fe f6be 4b50 a7bf
00000050: c853 04c0 2524 a8be 85b4 2040 f398 9dbf
00000060: 5ba6 90bf 9025 08bf 7065 e83f 2a0e 933f
00000070: 20f8 29c0 422b 3d3e 030e d7bf 7538 74bb
1.1290433 -0.8705852 -2.043321 2.338879 -0.42091984 -0.12857287 -0.97916305 0.40707022
1.2647475 2.0660934 -0.70727456 0.2328015 0.06836463 0.1795463 -0.8582998 -2.053794
-2.3402038 1.8244181 -0.4824125 -1.3071378 -2.0676136 -0.32840076 2.511018 -1.2312301
-1.1300768 -0.53182316 1.8155956 1.1488698 -2.6557693 0.18473533 -1.6801151 -0.0037265096

layer2.1.running_var f4 [32]
00000000: 898b 0b40 335d 8c3f 0ad5 7040 dafb 6940
00000010: 92c6 4c3f 97da 853f 53c6 5a3f 713a 353f
00000020: 021a 6240 a1cd 3d40 e366 de40 d2c1 513f
00000030: b9f1 0e3f fb15 9a3e 128c 1e3f b9cf 8640
00000040: 4dc8 b040 cd9e 1c40 ee1e 5a3f e221 c93f
00000050: 3888 1b40 aef0 0b40 fc57 2640 20f7 c53f
00000060: cac6 cd3f f4a1 273f e139 6040 26b4 0d40
00000070: b8e0 2640 b6ec 053f 7135 3740 e241 3d3f
2.1803916 1.0965942 3.7630029 3.6559968 0.79990494 1.0457333 0.8545887 0.707923
3.5328374 2.9656756 6.9500594 0.8193637 0.5583759 0.30094895 0.6193248 4.212857
5.524451 2.4471924 0.85203445 1.5713465 2.4301891 2.186565 2.5991201 1.5466042
1.6076291 0.65481496 3.5035326 2.2141204 2.6074657 0.5231432 2.8626368 0.73928654

layer3.0.weight f4 [64, 32, 3, 3]
00000000: dcdb aabd 8f9b f73a c237 a5bd 8636 e5bc
00000010: 8dda 8bbc 06aa b0bc b7c5 423b 46cb 06bd
00000020: 32ae a1bc a2c3 15bd 82e6 da3b ab78 e3bb
00000030: 7e1b 3d3a f794 58bd b7ff 6a3b 47d8 db3a
00000040: 9aa4 e0bc 7ec7 30bd 2227 b93d fa10 513c
00000050: 0872 543d 8a98 3f3d 3452 693d a8df 1ebb
00000060: 2f2c 843d 3966 0e3d 4843 473d 734a 85bd
00000070: 1041 23bd 9c5d 60bd e2e7 aabd 793a 9ebc
00000080: f95b 30bb 5b63 c0bd 785c ccbc b4d2 3fbd
00000090: f5eb d8bd 333d 1b3d 4005 e4bd d29f 413c
000000a0: 3713 143d b646 223c f0b5 97bc 3472 2dbd
000000b0: 256b 45bd d252 babd eb9a c83c bca8 21bd
000000c0: fd21 a5bc cdf4 cb3d e913 803c 0975 1abd
000000d0: baa6 32bd c4a0 cd3c 8dc0 3ebd 8351 173d
000000e0: 370a 25bd 8cda 1dbb 986d 2a3c 4c31 b73c
000000f0: 1a3c f0bd 76be 56bd 662d 28bd 9c1e d7bd
00000100: 6b2c 693d 11ad 87bd 52f4 3e3c c6ee c13c
00000110: 42f1 503d 780d 603d a33c 36bc 7bb8 bebb
00000120: 8756 4dbc b4bf b53d 8f99 c83d 14a6 dc3d
00000130: aa8c cc3d ccca d73d d19c 3c3d 5f57 8d3d
00000140: 66dd f43c ffce 64bd 8cd5 7abd 1d33 e4bd
00000150: 2bbd b3bd 03b6 723c 18ef 06bd 9405 03be
00000160: 474c 33bd 90e1 edbd f099 683d abe9 493d
00000170: ac26 e83d 8dce aa3d c922 59ba 1955 7d3d
00000180: bba4 ab3d 68f3 673d ef89 d53d 8e37 413d
00000190: d848 ce3c 6b3b 363d 825f 963d 7adb 8d3d
000001a0: aeb2 2b3b 339a 103d 76ad 4c3c 24fd 793b
000001b0: 73c5 9dbc 8492 103d 8fd8 1cbd 1feb 20bd
000001c0: 6ad6 023d c591 72bd 59c1 9d3a 3c53 6fbd
000001d0: a721 1cbb bf67 9cbd 9324 3fbd 5e62 95bd
000001e0: f553 e13b f7ac 01bb ac79 6cbc 8a18 e33d
000001f0: 8844 61bd 29ce 453b a645 e0bd 54b2 26bd
00000200: 8055 49bd 2cbd 073d e459 4ebd eabd ffbd
00000210: 8052 073d 5cd0 99bd 3b76 d3bb 4357 5c3d
00000220: 3d2e 0d3d 99c6 2c3d 8141 cc3d 2140 0d3d
00000230: 3f8e 0cbd 7fb5 1b3d add9 c43c 523d 5a3d
00000240: 5a12 163d 82db 873b 1094 823c 5647 943d
00000250: 1f59 4a3d 3bb6 913d a416 e73d f281 ba3d
00000260: 4bb0 b63d b4f9 d5bc 700c c2bd ea74 6dbd
00000270: 05e4 c2bc ac9a 933d 70cb cabd ce86 ccbc
00000280: 958a febd 5dd2 26bd 09dd 993c 75d7 0a3e
00000290: c8a7 643d 5c7c 1d3e 98aa a93d 9e19 7c3d
000002a0: 4b96 4e3d dd23 60bc e6a1 af3d 7979 9d3c
000002b0: 354e 663d a552 0cbd 9bab c7bc 8054 043d
000002c0: f462 cfbc cc83 8739 5f07 52bc ed83 3f3b
000002d0: 80d9 f03c bd90 5dbb b34d f53c e43b 4f3d
000002e0: 7f49 ec3c 7000 c63c 671d 6c3d 8d37 53bd
000002f0: 51b3 ba3d e8a3 1d3d 1c11 893c df44 893d
00000300: 00b5 8b3d 7b33 343d 2c5a 793d 5a5f 6a3b
00000310: a46e b33c da52 0e3d 3ebf b0bc 3968 6ebb
00000320: b7d1 103c 3a8b 853d fcca 923c b5f1 1a3d
00000330: 7b27 113e 983e cc3d 041c a03d 83ee b4bd
00000340: aa01 14bd d58c 4fbd a553 a3bd 8e59 0fbc
00000350: 0003 bfbd 14b0 a9bd 776f d0bd 27a4 1fbb
00000360: 42b8 493c 7238 eb3d 30a0 3e3d aa14 c33d
00000370: 8b88 323d 9ca9 ac3b 3e9a 9c3c b37a 013c
00000380: e5f3 25bc bc72 86bd ecd8 61bd 56ee fdbc
00000390: f7c3 a3bd 8fc1 b83c ab44 85bc efa5 a1bd
000003a0: d5bb ebbd ae42 f3bd baf5 9abd d563 36bd
000003b0: 3f94 d2bd f9db 31bd 0297 c03b 6199 9fbc
000003c0: a540 15bd 10ef 24bd 3019 96bb 3410 35bd
000003d0: 7623 31bd 7593 32bd 49b7 8ebd 0737 223d
000003e0: a3cd 89bc 12c7 83bd abc5 e5bd c0f6 c0bd
000003f0: 418b 293d 2e66 ef3a 6b37 383d 8a24 313c
-0.08342716 0.0018890965 -0.080672756 -0.0279801 -0.017071987 -0.021565448 0.0029719898 -0.0329087
-0.019736383 -0.036563523 0.0066803107 -0.006941875 0.00072138745 -0.05287644 0.0035857984 0.001677283
-0.027422238 -0.043159 0.09040667 0.012760395 0.05186656 0.046776332 0.05696316 -0.0024242196
0.0645374 0.034765456 0.04864815 -0.06508341 -0.03985697 -0.054776773 -0.083450094 -0.019314991
-0.0026910289 -0.093939506 -0.024946436 -0.0468318 -0.1059188 0.03790016 -0.11133814 0.011817889
0.036151137 0.009904554 -0.018519372 -0.04234524 -0.048197884 -0.09097828 0.024487933 -0.03946756
-0.020157808 0.099588014 0.015634494 -0.03770927 -0.043616034 0.025101073 -0.04657035 0.03694297
-0.040292945 -0.0024086563 0.010402106 0.022362374 -0.117302135 -0.05242773 -0.04105892 -0.10503885
0.056927126 -0.06624807 0.01165493 0.023673426 0.05101133 0.054700345 -0.011122855 -0.0058203316
-0.012532837 0.08874455 0.09794914 0.107738644 0.09987767 0.10536727 0.04604799 0.0690143
0.029890727 -0.05586147 -0.06123881 -0.111425616 -0.08776315 0.014813903 -0.03294286 -0.12795097
-0.043773916 -0.11615288 0.05678743 0.04929511 0.11335501 0.08340178 -0.00082830765 0.061848734
0.08381029 0.056628615 0.10426699 0.04717212 0.025181219 0.04449026 0.073424354 0.069266275
0.002619903 0.035303306 0.012492528 0.0038145268 -0.01925919 0.03529598 -0.038292464 -0.03928673
0.031942762 -0.059221048 0.0012035772 -0.058428988 -0.002382377 -0.076369755 -0.04666574 -0.07294153
0.0068764635 -0.0019786933 -0.014433306 0.11088665 -0.054996997 0.0030182695 -0.109507844 -0.04069741
-0.049153805 0.033139393 -0.050378695 -0.12487395 0.033037663 -0.075104445 -0.006453303 0.053794157
0.034467924 0.042181585 0.099734314 0.034484986 -0.034315344 0.038014885 0.024029577 0.053281136
0.036638595 0.0041460404 0.015939742 0.07240169 0.0494014 0.07114836 0.11283615 0.09106816
0.08920344 -0.026120044 -0.094750285 -0.057972826 -0.023790369 0.07207236 -0.09902084 -0.024966624
-0.12428776 -0.04072796 0.018782156 0.13558753 0.05582407 0.1537947 0.08284491 0.061547868
0.0504363 -0.0136804255 0.085758016 0.019222962 0.056226928 -0.034258503 -0.02437382 0.032307148
-0.02531574 0.00025847403 -0.01281914 0.002922292 0.029400587 -0.0033808195 0.029944276 0.050594226
0.02884364 0.02417013 0.057645228 -0.05156665 0.09116233 0.03848639 0.016731791 0.06702589
0.068216324 0.043994408 0.06087701 0.00357624 0.021903343 0.034746982 -0.021575566 -0.003637804
0.008839062 0.06520696 0.017919056 0.037828166 0.14175217 0.09972876 0.078178436 -0.08834555
-0.0361344 -0.050671417 -0.07974938 -0.008749379 -0.09326744 -0.08285537 -0.1017751 -0.0024359317
0.012311997 0.114853755 0.046539485 0.09525426 0.04358725 0.0052692425 0.019116517 0.007902789
-0.01012895 -0.065648526 -0.055138513 -0.030997436 -0.07996362 0.022553233 -0.016268095 -0.078929774
-0.115104355 -0.118779525 -0.075664 -0.0445288 -0.10282182 -0.043422673 0.0058773765 -0.019482316
-0.036438603 -0.04026705 -0.0045806393 -0.044204906 -0.04324671 -0.043597657 -0.069685526 0.03960326
-0.016821688 -0.06434454 -0.11219343 -0.09422064 0.04139257 0.0018264705 0.044974726 0.010811934

layer3.0.bias f4 [64]
00000000: 437d e637 c651 42b8 3816 9636 b80f 70b8
00000010: 149f edb6 3eac 85b9 4e0b edb7 b1ba 2038
00000020: 07b0 2637 edf9 aab8 54f5 ab37 118c 4cb8
00000030: 0a55 8cb7 95e8 04b8 8ff8 8738 4c04 9436
00000040: 86fb cbb7 2a82 9838 2f1c 5b38 9e0b ab37
00000050: 966e 5eb8 d91c 2137 8fe5 8db7 efc8 0737
00000060: d50f ad38 b871 5037 7faa 3837 a4e6 e9b6
00000070: 30f7 9338 1565 4ab8 3cc3 76b7 b447 e835
00000080: 1e0d a5b8 1119 1fb6 a027 c8b8 d7d4 0337
00000090: 5a04 e437 5ed7 0d38 ca1f c838 60dc 21b4
000000a0: 2576 c4b8 c9ab c1b8 137f 7137 d4a1 dc37
000000b0: 7ac8 8938 59a3 b236 9200 8bb8 f422 59b7
000000c0: 6059 54b9 054a 6838 e69c 5637 ea83 9536
000000d0: 9014 e0b7 0420 bab6 4b36 9a38 1a5b 0eb8
000000e0: 0906 37b8 5522 3437 166f 0038 0ef8 b236
000000f0: f3bf a237 50b0 fb37 5d24 4338 891c ad38
2.7476466e-05 -4.632936e-05 4.472935e-06 -5.72351e-05 -7.0816695e-06 -0.00025496067 -2.8257866e-05 3.8320843e-05
9.935356e-06 -8.152784e-05 2.0499028e-05 -4.8767837e-05 -1.67289e-05 -3.168786e-05 6.483599e-05 4.411244e-06
-2.431661e-05 7.27217e-05 5.2239917e-05 2.0390198e-05 -5.3031916e-05 9.603064e-06 -1.6915406e-05 8.0934105e-06
8.252232e-05 1.2424243e-05 1.1006951e-05 -6.970791e-06 7.0555485e-05 -4.8254693e-05 -1.4708199e-05 1.7306215e-06
-7.8702564e-05 -2.3707437e-06 -9.544124e-05 7.857764e-06 2.7181744e-05 3.3817596e-05 9.542664e-05 -1.5074465e-07
-9.3680144e-05 -9.2349546e-05 1.4394306e-05 2.63014e-05 6.570011e-05 5.3238296e-06 -6.628143e-05 -1.2942346e-05
-0.0002025119 5.5382046e-05 1.2791925e-05 4.455903e-06 -2.6712456e-05 -5.546959e-06 7.353405e-05 -3.3940283e-05
-4.363622e-05 1.073683e-05 3.0621035e-05 5.3336908e-06 1.9401288e-05 3.0003634e-05 4.652549e-05 8.254598e-05

layer3.1.weight f4 [64]
00000000: 42da 7a3f 31d0 783f 5ab1 843f 71fd 813f
00000010: d302 903f 7fca 893f 2e38 723f 0177 743f
00000020: a0ac 693f cedf 853f 900b 793f e3fa 843f
00000030: 1ad9 603f bd65 813f 52a7 803f c05b 7a3f
00000040: 8f5a 753f 6e2c 863f c60e 873f 0a1e 833f
00000050: 6ba3 6c3f 3394 6b3f e0ab 5c3f 15be 653f
00000060: a15f 803f b814 833f cb50 803f 7f13 833f
00000070: 8a8f 813f a4fa 6c3f 9053 733f dd57 803f
00000080: 91e1 7f3f 70b0 723f ef9c 853f 5bf5 8a3f
00000090: adc8 7f3f 4c05 803f b2f8 803f 080e 663f
000000a0: 704f 853f 654c 833f cc1e 803f 59d7 823f
000000b0: 959c 843f d9d4 703f b4d6 763f 7027 823f
000000c0: 8c1c 893f 25f5 833f 2094 823f 46b7 823f
000000d0: bd8b 833f 07ef 813f 8510 7d3f 1ed4 7c3f
000000e0: 546d 863f f8c3 8c3f 8c86 893f ad37 763f
000000f0: a1a2 873f f9e2 783f ee16 7a3f 29ac 823f
0.97989285 0.97192675 1.0366623 1.0155469 1.1250862 1.0764922 0.94616973 0.95494086
0.9127903 1.0458925 0.9728327 1.0389065 0.8783127 1.0109173 1.0051062 0.9779625
0.95841306 1.0482309 1.0551383 1.0243542 0.92436856 0.9202301 0.8619976 0.8974317
1.0029184 1.0240698 1.0024656 1.0240325 1.012193 0.9256995 0.9504938 1.0026814
0.9995356 0.9480047 1.0438517 1.0856127 0.9991558 1.0001616 1.0075896 0.8986516
1.0414867 1.0257689 1.0009398 1.0221969 1.0360285 0.9407478 0.9642136 1.0168285
1.0711837 1.0309187 1.0201454 1.0212181 1.027702 1.015107 0.9885333 0.98761165
1.0502114 1.0997305 1.0744185 0.96178705 1.0596505 0.9722133 0.9769124 1.0208789

layer3.1.bias f4 [64]
00000000: ad36 6b3d 8702 853d 7ca5 e9bd c778 353d
00000010: ae42 633d 4b9c 16bd a197 abbb 5e54 cdbb
00000020: 91dd b5bd d2e3 a6bd 08ee 94bd 1b3c 5b3c
00000030: 3aa7 64bd 55b7 24bd 7293 ddbd ae9f c9bd
00000040: 3cd3 4f3d 23c4 8abd 2f23 663d ac40 e2bd
00000050: af47 cdbc 43af 0ebd 0697 c0bd 7e0d e2bd
00000060: e370 743d 80b2 d1bd ebd1 cebc dedc f9bd
00000070: 1365 fabb a2bf 19bb ec00 b9bc d201 483a
00000080: b7d3 99bd 3c21 933d 4c54 7bbd e7cf 28be
00000090: aee3 bcbd 6f32 b5bd f120 9b3c dd65 3dbe
000000a0: 9618 873d fc68 96bd 2a04 a83d 6c34 b2bd
000000b0: 1e53 a5bd db24 d5bc 5826 083d 5efe 913d
000000c0: cb3b 07bd 12fd 9abd 1273 5cbd 2a3e 653d
000000d0: 68fc cdbd 695a 01be bccd a53c b3d7 c7bd
000000e0: 55d3 59bd db97 62bc 6ea6 e6bd 0039 46bd
000000f0: b90d 5ebd ce8b fdbd 0b7f eabc fb58 b4bd
0.05742519 0.06494623 -0.11408517 0.044304635 0.055483513 -0.036770146 -0.0052365814 -0.006266161
-0.08880151 -0.08148922 -0.07271963 0.0133810295 -0.055823542 -0.0402139 -0.108191386 -0.098449096
0.05073856 -0.06775691 0.056185897 -0.110474914 -0.025058595 -0.03483511 -0.094038054 -0.1103773
0.05967797 -0.10239124 -0.025246581 -0.1220033 -0.0076414435 -0.002346017 -0.022583447 0.0007629666
-0.075110845 0.07184073 -0.06135969 -0.16485558 -0.09223114 -0.0884751 0.018936606 -0.18495889
0.06596486 -0.07344243 0.08203919 -0.08701405 -0.08072494 -0.02601855 0.033239692 0.07128595
-0.033016007 -0.075678006 -0.053820677 0.055967487 -0.10057908 -0.12632145 0.020239703 -0.09757938
-0.053180058 -0.0138301505 -0.11262213 -0.048394203 -0.054212306 -0.12380181 -0.028625032 -0.08806034

layer3.1.running_mean f4 [64]
00000000: bfdf b53e e723 693f 68bd 4440 9ec2 3c3f
00000010: b035 d6bf 172a cd3f 7345 22c0 9c17 57c0
00000020: b038 13c0 36a4 8840 f844 e73f cdbb 8bbf
00000030: a2a7 adbf 23b2 df3f b679 5140 9098 6e3f
00000040: 00d0 a33f e749 2a40 ae90 8dc0 f694 2340
00000050: 35aa c33f 1260 67bd 34a2 2ec0 80f3 a43f
00000060: 5e10 3040 28e0 5240 bfe7 d1bf c46f f63e
00000070: 2981 7540 ce23 543f ccfb 3c3e 42c0 87c0
00000080: be5c ec3f 4c65 51be 240b 0f40 da56 20c0
00000090: aa32 5440 f547 51c0 d430 e33f 6f02 6dbf
000000a0: 57ac 9ec0 7cbe 1040 951e 843f 2a2d 4e40
000000b0: 6f5c 6e3f f36c 8fc0 fd04 79bf db8a 5fc0
000000c0: bca0 3340 ddd5 1740 9b0d a73f 170f 91c0
000000d0: 70b8 ac3f 259b b63f 1528 d73f addc 6740
000000e0: 3d43 5740 4433 8ebf 02e4 febe b926 04c0
000000f0: 2290 5f40 b773 b43f f87a 08bf 7efd bc3f
0.35522267 0.9107041 3.0740604 0.7373446 -1.6735134 1.602847 -2.5354888 -3.360816
-2.300335 4.2700453 1.8067923 -1.0916687 -1.3566782 1.7476238 3.2730536 0.9320154
1.2797852 2.6607606 -4.423911 2.5559669 1.5286318 -0.056488104 -2.72865 1.288681
2.750999 3.2949314 -1.6398848 0.48132145 3.8360083 0.82867134 0.18455428 -4.242219
1.8465803 -0.20448798 2.235055 -2.505301 3.3155923 -3.270017 1.7749276 -0.9258184
-4.9585376 2.2616262 1.0321833 3.2215066 0.9310979 -4.4820495 -0.97273237 -3.49285
2.8066854 2.3724282 1.3051027 -4.533092 1.3493786 1.4266096 1.6809107 3.622844
3.363479 -1.1109395 -0.4978333 -2.0648634 3.4931722 1.4097813 -0.53312635 1.476486

layer3.1.running_var f4 [64]
00000000: 0da9 1941 30cd 5041 6099 c140 1461 0e41
00000010: f198 d240 3642 c63f 3e6f 9d40 3f68 be40
00000020: e06a 8140 0413 5440 6524 9540 02df 8040
00000030: 96ff b440 21b5 3b40 e16b be40 6412 8640
00000040: 028a 3e41 405a 4d40 49ea bc40 3c09 1b40
00000050: 0116 9240 d6c9 e440 51e3 bd40 aa2d 8940
00000060: 58b5 bf40 a62c b940 71e3 ab40 e6ed 0840
00000070: a3f2 aa40 cd90 0441 7e80 8a40 2a32 1941
00000080: 81dc 6040 17cd 3e41 44fc 5a40 d550 4e40
00000090: 83a7 5a40 d9c8 1e40 98c7 9e40 3ba4 4040
000000a0: bce1 4241 b154 8040 af60 5f41 1da0 4240
000000b0: 0716 8640 28c0 c140 62da 9d40 02b0 c940
000000c0: 90d0 4a40 59bd 3e40 1a2a 8c40 ad37 0841
000000d0: 5126 3740 4031 0441 ea33 c040 56aa 8040
000000e0: 2c92 1b40 4a6c 8f40 bbae c43f 3414 8940
000000f0: e7f7 4540 92a9 2440 6832 6740 bb8e 5a40
9.603772 13.050095 6.0499725 8.898701 6.5811696 1.5488956 4.9198294 5.9502254
4.0442963 3.3136606 4.6606927 4.0272226 5.6561995 2.9329302 5.950669 4.189745
11.908693 3.2086334 5.9035993 2.4224386 4.565186 7.149638 5.9339986 4.286824
5.9908867 5.7867002 5.371514 2.1395202 5.3421187 8.285352 4.328185 9.574747
3.5134585 11.925071 3.421647 3.2236836 3.416474 2.4810088 4.9618645 3.0100238
12.180111 4.0103383 13.961104 3.0410225 4.190189 6.0547066 4.932908 6.3027353
3.1689796 2.9803069 4.3801394 8.513593 2.8617136 8.262024 6.006337 4.020793
2.4307966 4.481969 1.5365824 4.283716 3.0932558 2.5728498 3.6124516 3.4149616

fc1.weight f4 [10, 576]
00000000: 2208 693d c61a 0d3d 2854 dd3c 6a5c 163d
00000010: 417f 9e3c 2ee7 263d 5778 953c 7a33 a43c
00000020: 7e5e ab3c 7703 3e3d 0255 303d 762e b93c
00000030: b828 a43b fb06 893c 3011 0abc e81e 2a3b
00000040: da61 03bc ebf6 313b 510a e83c a5be 2f3c
00000050: 4552 833c 211c 2bbd 8ab3 c33c b920 94bc
00000060: 728e 00be 2a06 65bd f10a 58bd b9a6 4b3d
00000070: 2428 bc3d 72ea 8e3d 8233 7b3d 1706 693c
00000080: d7df 843c 3b72 9e3b 2e02 c5bc 7698 a73c
00000090: f5c8 e33d 9c56 f93d 007f bc3d 1c0e 633d
000000a0: 18c2 cf3c 7c1b 093d 8051 63bd ebef 203c
000000b0: 516a c0bc 8e06 cfbb 0345 883d a3a7 14bd
000000c0: 2353 6fbd 5d41 60bd c49c 73bd bde6 2cbd
000000d0: 199b 9abd 35f5 5cbd 415e b2bb fdf8 fb3c
000000e0: f46a 563d 21c2 6bbc 6341 88bc 25f8 7c3b
000000f0: 2a81 a23c 6885 cf3c 972d ea3a e485 e73c
00000100: b7f5 1ebb 55ab c03c 01e3 fd3c ba01 303c
00000110: 085d 1e3b 296b 8dbc 29d7 9f3b e7f0 c33c
00000120: b39e c5bc 49dc 02bd ee84 ad3b 1c79 fe3a
00000130: 6fc2 b43c 7ba4 0d3d 8e16 90bc a3e7 043c
00000140: 428a 383b ef4f 20bd a775 30bd 8d3b 2cbd
00000150: 227c 6ebd af64 81bd df6d fdbc e6ce 73bd
00000160: de27 e6bd 25a2 b1bd f778 13bc 524d 67bd
00000170: efad e9bc 5c77 00be 92b7 50bd fd37 56bd
00000180: f445 e3bd bea0 b7bc 666e 84bd b6fc e53d
00000190: cf86 cb3d 3d11 813d b3ac fd3c eb30 b13c
000001a0: c074 d5bc 6b91 043b a661 8c3d 987e e43b
000001b0: 6b33 613d bdc3 643d a39f f53c 47ce 843c
000001c0: 82f8 a13c 9f57 3e3c f3f5 633c 2a94 9039
000001d0: 04ff 94bc f796 03bd 0e18 40bc 1561 fcbc
000001e0: 1bdf 14be ff0c e3bd e1a2 99bc 6b4e c3bd
000001f0: 09b0 03be b0b9 79bd e465 073d 6183 2b3d
00000200: a4c1 02bd 95f6 f2bd 0dc1 85bd 82eb a3bc
00000210: 90c1 afbd 98ad 9b3c 445d aabd 34a3 0b3d
00000220: eacc 043b 959f 013d 8935 efbc 9ab9 8cbd
00000230: 94c6 34bd 9b16 eebc a3df 7dbb 1bd9 76bc
00000240: bc2a e63c f9c4 4a3d a23b f23c 838a cf3c
00000250: 3b7a 863b 1f9a 0bbc 826a 85bb 14d7 3539
00000260: 44e3 133c 81b4 a5bd 0fa6 48bd 176f 99bc
00000270: 9f9b adbd 870a b3bd a807 37bd 264d 1abe
00000280: ef9b c4bd 7b11 79bd 3e15 8a3d 948a 8c3d
00000290: beee 853d 8cbb dc3c 4390 6b3d 1cbf 123d
000002a0: fbbc 9c3b a418 b33b 06db 00bc cf10 8a3b
000002b0: 7f02 5cbd 6225 3dba 4e85 c8bd dfa2 2abd
000002c0: 41ad 8abb ae4a 28be 9afa faba 0250 83bd
000002d0: 113d 313c 794d 8e3b 3e98 a13b cdd4 4c3b
000002e0: f9c0 4c3a 1b37 093d 3877 f13c e712 d2b9
000002f0: cbf4 8abc 9fae a43d b471 8e3d 62c8 013d
00000300: b332 833c a024 873b f07c 913b 4246 0f3d
00000310: 8ec8 933c 96eb cd39 4b50 263d 1966 853d
00000320: d969 923c 1a58 9e3c a113 983d a25c 683c
00000330: 48a9 fbba f8bf 3c3d 6078 093c 16fc 85bc
00000340: b4e1 353b ce48 813c 17e6 9abc b807 f8bc
00000350: bd73 25bc 3cce a1bc 5bff 93bc cf9a ca3c
00000360: aafd 54bc e64f 7fba a4d8 323d 9204 023c
00000370: d69b d03c 8904 883c 1612 03bb 9a01 5abc
00000380: bfc1 9a3c d07f 503d dee0 f7bb 271b 4ebd
00000390: e9b7 24bd bee6 70bc 12b6 64bd c86f aabd
000003a0: 86a6 7dbd e6e3 91bd e063 0fbd e2b5 f23b
000003b0: 3ff6 08bc 0022 cebc a730 83bb a6da b1ba
000003c0: c522 0dbd 5ba9 4a3c 6c73 df3c b39f b43c
000003d0: 0439 53bb 5519 c03c 5820 71bd 2748 d3bb
000003e0: 6999 07bd 96a0 82bd cdae 03bd 529e 00bd
000003f0: 0c98 a43d 8fe6 c83d 31f2 7b3d c32c 453d
0.05689252 0.03444936 0.027017668 0.036709227 0.019347789 0.040747814 0.01824586 0.020044077
0.02091908 0.046390023 0.04304982 0.022605162 0.005009737 0.016726961 -0.008426949 0.0025958363
-0.008018935 0.0027155231 0.028325232 0.010726606 0.01603044 -0.041774873 0.023889322 -0.01808201
-0.12554339 -0.05591408 -0.05274481 0.049719546 0.09187344 0.06978311 0.06132842 0.014222643
0.016220016 0.0048353947 -0.02404889 0.020458441 0.11122314 0.121747226 0.09203911 0.055433378
0.025361106 0.033473477 -0.055497646 0.009822826 -0.023488196 -0.00631792 0.06653788 -0.036292683
-0.058428895 -0.054749835 -0.059475675 -0.042212237 -0.07549114 -0.053944785 -0.005443365 0.030758375
0.052348092 -0.014389546 -0.016632741 0.0038600054 0.01983698 0.025332168 0.001786637 0.028262086
-0.0024255344 0.023519197 0.030992033 0.010742599 0.0024164338 -0.017263012 0.004877944 0.023918582
-0.024123525 -0.03194836 0.0052953875 0.0019414756 0.02206537 0.03458069 -0.01758888 0.008111867
0.002815858 -0.03913873 -0.043080952 -0.04204898 -0.05822385 -0.06318032 -0.03093618 -0.059523486
-0.11238073 -0.08673505 -0.009001008 -0.056470223 -0.02852532 -0.12545532 -0.050956316 -0.05229949
-0.11097327 -0.022415515 -0.06466369 0.112298414 0.09937822 0.06302116 0.030966138 0.021629771
-0.026056647 0.0020228277 0.068545625 0.006973099 0.054980677 0.055850733 0.029983347 0.016211642
0.019771818 0.01161757 0.013913619 0.0002757621 -0.018188007 -0.032126393 -0.011724485 -0.030808011
-0.14538233 -0.11086463 -0.018754425 -0.095364414 -0.12860121 -0.0609681 0.033056155 0.04187334
-0.03192295 -0.11863438 -0.06530962 -0.02000976 -0.08581841 0.019003674 -0.0831857 0.03409119
0.002026374 0.03164633 -0.029200332 -0.06871338 -0.04413469 -0.029063514 -0.0038738034 -0.01506641
0.02809655 0.049504254 0.02956945 0.025334602 0.0041039265 -0.008520632 -0.0040715346 0.00017341628
0.009026352 -0.08091069 -0.04898649 -0.01872973 -0.08476948 -0.08742242 -0.044685036 -0.15068492
-0.096000545 -0.060807686 0.06742333 0.06862369 0.06539677 0.026944898 0.057510626 0.035826787
0.0047832704 0.005465584 -0.007864719 0.0042134295 -0.053713318 -0.00072153483 -0.09791051 -0.041659232
-0.0042320793 -0.16434738 -0.0019148171 -0.06411745 0.010817782 0.0043427316 0.0049314788 0.003125477
0.00078107376 0.03349982 0.029475793 -0.00040068405 -0.01696243 0.08041119 0.06955281 0.03168524
0.016015386 0.004124239 0.0044399425 0.034979112 0.018039968 0.00039276172 0.040603917 0.06513614
0.017872738 0.01932912 0.07425619 0.014182242 -0.001920023 0.046081513 0.008390516 -0.016355556
0.0027752938 0.015781786 -0.018908544 -0.030277118 -0.010098395 -0.01975166 -0.018066099 0.024732022
-0.012999931 -0.0009739384 0.043663636 0.00793566 0.025464933 0.016603725 -0.0019999794 -0.013306046
0.018891213 0.05090314 -0.007564648 -0.050318863 -0.040214453 -0.014703451 -0.0558377 -0.08322102
-0.061926387 -0.07123546 -0.035007358 0.007406936 -0.008359491 -0.025162697 -0.0040036025 -0.0013569191
-0.034456987 0.012369479 0.027276717 0.022048807 -0.003223003 0.02344958 -0.058868736 -0.00644781
-0.033105288 -0.063782856 -0.032149125 -0.031400986 0.08036813 0.098096006 0.06151027 0.04813839

fc1.bias f4 [10]
00000000: 3c0a e83d 7301 febd 072e da3d 8a2e 263e
00000010: 0927 b23d 4a55 03be a577 c5bd 83cd 043e
00000020: 9cac 863c 62fe 183e
0.11330077 -0.1240262 0.1065331 0.1622869 0.086988516 -0.12825504 -0.09641961 0.12969021
0.016439728 0.1494079

fc2.weight f4 [2, 10]
00000000: 4f9c 763e 8010 f13d 01dc b93d e0bd 07be
00000010: e4b9 ae3d bc73 01be 155b ccbd d016 883e
00000020: 4271 fabd 5151 eabd 3d72 0cbe 1f98 763e
00000030: 3efb 29be 9899 a6be 12ef 24be 06cf 3b3e
00000040: f421 7d3e 5871 c3bd f04f 8f3d a3af b0be
0.24083064 0.11770725 0.090751655 -0.13256025 0.085315496 -0.12641805 -0.0997831 0.26579905
-0.122286335 -0.11441291 -0.13715453 0.24081467 -0.16599748 -0.32539058 -0.16106823 0.18340692
0.24719983 -0.09543103 0.06997669 -0.34509

fc2.bias f4 [2]
00000000: 053d 863e bcab 4ebe
0.2621843 -0.20182699
